input_data_local/lips_case14_sandbox/Benchmark_competition/test_ood_topo/theta_or.npz (npz, 91396 bytes, 1 tensors)

data f4 [2000, 20]
0	0x00000000	0.0
1	0x00000000	0.0
2	0xbf8ff780	-1.1247406
3	0xbf8ff780	-1.1247406
4	0xbf8ff780	-1.1247406
5	0xc071e879	-3.779814
6	0xc080557f	-4.0104365
7	0xc0d66530	-6.699852
8	0x00000000	0.0
9	0xc0d66530	-6.699852
10	0xc0f02673	-7.5046935
11	0xc0f02673	-7.5046935
12	0xc0f1b954	-7.553873
13	0xc0f5e285	-7.6839013
14	0xc0f1dbcd	-7.558081
15	0xc080557f	-4.0104365
16	0xc080557f	-4.0104365
17	0x00000000	0.0
18	0xc0ca4931	-6.3214345
19	0xc0f02673	-7.5046935
20	0x00000000	0.0
21	0x00000000	0.0
22	0xbf95cc63	-1.1702999
23	0xbf95cc63	-1.1702999
24	0xbf95cc63	-1.1702999
25	0xc07d7f3c	-3.9608908
26	0xc08127a9	-4.0360913
27	0xc06e3301	-3.721863
28	0xc06e3301	-3.721863
29	0xc06e3301	-3.721863
30	0xc10d3f9c	-8.82803
31	0xc10d3f9c	-8.82803
32	0x00000000	0.0
33	0xc0929865	-4.581103
34	0xc09d1e28	-4.909931
35	0xc08127a9	-4.0360913
36	0x00000000	0.0
37	0xc04cd4ab	-3.2004802
38	0xc0e63cc3	-7.194917
39	0xc10d3f9c	-8.82803
40	0x00000000	0.0
41	0x00000000	0.0
42	0xbf99500e	-1.1977556
43	0xbf99500e	-1.1977556
44	0xbf99500e	-1.1977556
45	0xc07cca91	-3.9498637
46	0xc083daac	-4.1204433
47	0x00000000	0.0
48	0xc0106066	-2.2558837
49	0x00000000	0.0
50	0xc107c69c	-8.485989
51	0xc107c69c	-8.485989
52	0xc10d14b8	-8.817558
53	0xc09b4e33	-4.853296
54	0xc0cc02f5	-6.375361
55	0xc083daac	-4.1204433
56	0xc083daac	-4.1204433
57	0xc0455063	-3.0830314
58	0xc0df82c8	-6.9847145
59	0xc107c69c	-8.485989
60	0x00000000	0.0
61	0x00000000	0.0
62	0xc007550b	-2.1145656
63	0xbf8d83f3	-1.1055893
64	0xc007550b	-2.1145656
65	0xc096d095	-4.7129617
66	0xc08af1ad	-4.3420014
67	0xc0b35c29	-5.605
68	0xc0b35c29	-5.605
69	0x00000000	0.0
70	0xc1245599	-10.270898
71	0xc1245599	-10.270898
72	0xc119f7f1	-9.623033
73	0xc0fb6def	-7.8571696
74	0xc1113ab9	-9.076837
75	0x00000000	0.0
76	0xc08af1ad	-4.3420014
77	0xc070c8c5	-3.762254
78	0xc1245599	-10.270898
79	0xc1245599	-10.270898
80	0x00000000	0.0
81	0x00000000	0.0
82	0xbf98b756	-1.193095
83	0xbf98b756	-1.193095
84	0xbf98b756	-1.193095
85	0xc07bab2f	-3.9323232
86	0xc0782fe2	-3.8779225
87	0x401283df	2.2892988
88	0x401283df	2.2892988
89	0xc0d1a51e	-6.551406
90	0xc0b576ae	-5.6707373
91	0xc0b576ae	-5.6707373
92	0xc08e0dcb	-4.4391837
93	0x00000000	0.0
94	0xc0deb746	-6.9598722
95	0xc0782fe2	-3.8779225
96	0x00000000	0.0
97	0xc0676a24	-3.6158533
98	0xc0a1f1b6	-5.0607557
99	0xc0b576ae	-5.6707373
100	0x00000000	0.0
101	0x00000000	0.0
102	0xbff77040	-1.9331131
103	0xbff77040	-1.9331131
104	0xbff77040	-1.9331131
105	0xc0c315b4	-6.0963993
106	0x00000000	0.0
107	0x00000000	0.0
108	0xc054d564	-3.3255243
109	0xc054d564	-3.3255243
110	0xc122be53	-10.171466
111	0xc122be53	-10.171466
112	0xc127edef	-10.495589
113	0xc08a23a1	-4.316849
114	0xc0981f44	-4.7538166
115	0xc0e6cf2e	-7.2127905
116	0xc0e6cf2e	-7.2127905
117	0xc023e912	-2.5611005
118	0xc11296e9	-9.161843
119	0xc122be53	-10.171466
120	0x00000000	0.0
121	0x00000000	0.0
122	0xbffb3059	-1.962413
123	0xbffb3059	-1.962413
124	0xbffb3059	-1.962413
125	0xc0a91e02	-5.284913
126	0x00000000	0.0
127	0x40228e30	2.5399284
128	0x00000000	0.0
129	0xc1031fcf	-8.195266
130	0xc0d6f8c9	-6.7178693
131	0xc0d6f8c9	-6.7178693
132	0xc0a7cb95	-5.2436013
133	0xc10cc174	-8.79723
134	0xc10b1785	-8.693242
135	0xc0bb13a4	-5.8461475
136	0xc0bb13a4	-5.8461475
137	0xc098faad	-4.7806
138	0xc0cd7743	-6.4208083
139	0xc0d6f8c9	-6.7178693
140	0x00000000	0.0
141	0x00000000	0.0
142	0xbf6c5874	-0.9232247
143	0xbf6c5874	-0.9232247
144	0xbf6c5874	-0.9232247
145	0xc08587ff	-4.172851
146	0xc092ea17	-4.5910754
147	0xbfd055ba	-1.6276162
148	0xbfd055ba	-1.6276162
149	0x00000000	0.0
150	0x00000000	0.0
151	0xc0ffaeb2	-7.990075
152	0xc02f7d98	-2.7420406
153	0xc088eb7b	-4.278745
154	0xc0bba4eb	-5.8638816
155	0xc092ea17	-4.5910754
156	0xc092ea17	-4.5910754
157	0xbf9eab88	-1.2396097
158	0xc0da8cd7	-6.8296924
159	0xc0ffaeb2	-7.990075
160	0x00000000	0.0
161	0x00000000	0.0
162	0xbf971f95	-1.1806513
163	0xbf971f95	-1.1806513
164	0xbf971f95	-1.1806513
165	0xc0802daf	-4.0055766
166	0xc07c4323	-3.9415977
167	0xc0a36e3f	-5.107208
168	0xc0a36e3f	-5.107208
169	0x00000000	0.0
170	0xc11dfa17	-9.873557
171	0xc11dfa17	-9.873557
172	0xc1136833	-9.212939
173	0xc0ed0b4f	-7.4076304
174	0xc10a866c	-8.657818
175	0x00000000	0.0
176	0xc07c4323	-3.9415977
177	0xc05475e3	-3.3196952
178	0xc11dfa17	-9.873557
179	0xc11dfa17	-9.873557
180	0x00000000	0.0
181	0x00000000	0.0
182	0x00000000	0.0
183	0xbf933887	-1.1501626
184	0xbf933887	-1.1501626
185	0xc0ff7b99	-7.9838376
186	0xc0afc31f	-5.4925685
187	0x00000000	0.0
188	0x40ddbfa0	6.9296417
189	0xc0ae09dc	-5.4387035
190	0xc10e6e30	-8.901901
191	0xc10e6e30	-8.901901
192	0xc113aff4	-9.230457
193	0x3f9a479e	1.2053106
194	0xc08a2ebe	-4.318206
195	0xc0afc31f	-5.4925685
196	0xc0afc31f	-5.4925685
197	0xc089917a	-4.2990084
198	0xc0f77bf9	-7.7338834
199	0xc10e6e30	-8.901901
200	0x00000000	0.0
201	0x00000000	0.0
202	0xbf9bca4f	-1.2171115
203	0xbf9bca4f	-1.2171115
204	0xbf9bca4f	-1.2171115
205	0xc07f4784	-3.98874
206	0xc0855da3	-4.1676803
207	0xc0988681	-4.766419
208	0x00000000	0.0
209	0xc0988681	-4.766419
210	0xc0d7389c	-6.7256603
211	0x00000000	0.0
212	0xc0d27d4b	-6.5777946
213	0xc0c1bdad	-6.054404
214	0xc0bdb198	-5.927929
215	0xc0855da3	-4.1676803
216	0xc0855da3	-4.1676803
217	0xc05a883e	-3.4145656
218	0xc0bb81b4	-5.859583
219	0xc0d7389c	-6.7256603
220	0x00000000	0.0
221	0x00000000	0.0
222	0xbfb36d7e	-1.4017789
223	0xbf897f8c	-1.0742049
224	0xbfb36d7e	-1.4017789
225	0xc0846ab9	-4.1380277
226	0xc086676d	-4.200125
227	0xc0635903	-3.5523078
228	0x00000000	0.0
229	0xc0635903	-3.5523078
230	0xc0f81895	-7.7530007
231	0xc0f81895	-7.7530007
232	0x00000000	0.0
233	0xc0a47898	-5.139721
234	0xc0a02494	-5.004465
235	0xc086676d	-4.200125
236	0xc086676d	-4.200125
237	0xc05482a2	-3.3204732
238	0xc0d148a4	-6.5401173
239	0xc0f81895	-7.7530007
240	0x00000000	0.0
241	0x00000000	0.0
242	0x00000000	0.0
243	0xbfa27e8b	-1.2694868
244	0x3f1d0539	0.61336094
245	0xc0f5a795	-7.676707
246	0xc09f98bb	-4.987394
247	0x4079c85b	3.9028537
248	0x4079c85b	3.9028537
249	0xc0a7ace7	-5.2398562
250	0x00000000	0.0
251	0xc0f52595	-7.6608377
252	0x40325e69	2.7870123
253	0xbef09b4f	-0.4699349
254	0xc09125ed	-4.5358796
255	0xc09f98bb	-4.987394
