input_data_local/lips_idf_2023/Benchmark_competition/test_ood_topo/theta_ex.npz (npz, 936129 bytes, 1 tensors)

data f4 [2000, 186]
1.6441371 2.1657546 2.3887398 -0.21011934 1.7971541 1.7971541 -0.30305484 -3.3275695
-3.0844855 -3.0844855 -3.0844855 -2.5755205 -3.5007336 2.3887398 -2.5755205 -3.7134008
-3.6905022 -2.8154025 -2.8154025 -2.8154025 -4.567568 -4.291634 -5.52414 -5.7176948
2.3887398 -5.7176948 -7.7655363 -5.1802864 -2.695979 -2.695979 -5.265063 -5.265063
-3.1219132 0.65185 0.65185 2.3887398 0.65185 -1.5880615 -3.0203483 -3.0203483
-4.2297297 -4.316654 -4.316654 -4.316654 -3.766369 -3.1226254 2.7176764 -2.7428305
-2.0628922 -2.0628922 -4.316654 -3.766369 -2.0628922 -2.0628922 -2.1089334 -0.39841488
-0.39841488 2.8192265 -2.0768638 -1.3667994 -1.3667994 -2.8592906 -3.9653263 -2.8592906
-3.9653263 -4.365738 -1.6719787 -4.365738 5.198794 -1.141615 0.6260594 0.6260594
6.309057 -0.31656793 8.055408 8.055408 2.9376628 2.849425 2.849425 5.198794
1.2269462 -4.1686797 -4.1686797 3.1831656 6.7630544 6.035405 6.7630544 6.465413
4.9439178 4.194457 4.9439178 4.341746 5.118608 7.109605 5.2694354 13.715378
6.035405 9.848976 2.4858913 2.7181752 8.916775 8.916775 3.1206799 3.1206799
3.6636784 3.6636784 3.6636784 3.4620667 3.9772272 3.2586274 3.0518436 3.4745755
3.4745755 3.0518436 3.4745755 0.0 2.6886683 5.205574 2.945353 2.6886683
2.5557437 3.4724855 3.4724855 -2.1608734 0.5607019 -2.740962 -2.8322575 -1.9267542
-1.8610451 10.525851 -1.3339489 -1.3339489 -1.3339489 -1.3339489 -1.3339489 -2.8350303
0.0 -7.531642 -7.135665 -6.0884037 10.821282 -6.0884037 -6.0884037 -6.118153
-6.0926657 -6.0926657 -4.923608 -4.923608 -6.96318 -6.96318 -2.3209217 3.0628946
-2.3209217 -2.3209217 -2.3209217 2.9124088 2.8495746 2.8495746 2.4057615 2.4057615
1.987197 3.2267704 3.0628946 3.2267704 1.4538026 1.4538026 1.4538026 1.4644485
1.4644485 0.0 0.0 -0.513626 -0.513626 6.035405 13.715378 -2.8154025
-7.7655363 1.3572123 6.7630544 3.4745755 -2.3209217 2.8495746 1.4538026 1.3572123
0.0 1.3572123 1.566398 2.073901 2.3141809 -0.3574864 1.6125737 1.6125737
-0.45040384 -3.5266259 -3.2978158 -3.2978158 -3.2978158 -3.0985355 -3.0985355 2.3141809
-3.0985355 -3.3844192 -3.5762467 -3.342192 -3.342192 -3.342192 -3.2898436 -2.635922
-3.2646606 -3.1653566 2.3141809 -3.1653566 -5.2263107 -2.1159582 0.72650504 0.72650504
-1.7788427 -1.7788427 0.47661114 4.428504 4.428504 2.3141809 4.428504 2.1136847
0.6123603 0.6123603 -1.3901477 -2.4710555 -2.4710555 -2.4710555 -3.0953455 -6.1774626
2.65612 -8.083763 3.6165214 3.6165214 -2.4710555 -3.0953455 -9.297156 -9.297156
2.7562068 3.7357333 3.7357333 2.771346 -9.2855 -8.555251 -8.555251 -10.043149
-11.149764 -10.043149 -11.149764 -11.527389 -8.850648 -11.527389 5.213989 -8.318148
00000000: 1673 d23f b99b 0a40 1de1 1840 8629 57be
00000010: 2509 e63f 2509 e63f 012a 9bbe e6f6 54c0
00000020: 3668 45c0 3668 45c0 3668 45c0 54d5 24c0
00000030: 050c 60c0 1de1 1840 54d5 24c0 5ca8 6dc0
00000040: 3031 6cc0 8e2f 34c0 8e2f 34c0 8e2f 34c0
00000050: 8429 92c0 1155 89c0 c1c5 b0c0 5bf7 b6c0
00000060: 1de1 1840 5bf7 b6c0 467f f8c0 e8c4 a5c0
00000070: ec8a 2cc0 ec8a 2cc0 657b a8c0 657b a8c0
00000080: 6dcd 47c0 a4df 263f a4df 263f 1de1 1840
00000090: a4df 263f 9945 cbbf 634d 41c0 634d 41c0
000000a0: f259 87c0 0822 8ac0 0822 8ac0 0822 8ac0
000000b0: 310c 71c0 18d9 47c0 69ee 2d40 898a 2fc0
000000c0: 6d06 04c0 6d06 04c0 0822 8ac0 310c 71c0
000000d0: 6d06 04c0 6d06 04c0 c4f8 06c0 09fd cbbe
000000e0: 09fd cbbe 356e 3440 56eb 04c0 48f3 aebf
000000f0: 48f3 aebf 9efe 36c0 e8c7 7dc0 9efe 36c0
00000100: e8c7 7dc0 20b4 8bc0 6603 d6bf 20b4 8bc0
00000110: 855c a640 7120 92bf 6e45 203f 6e45 203f
00000120: cce3 c940 3115 a2be f3e2 0041 f3e2 0041
00000130: ab02 3c40 fb5c 3640 fb5c 3640 855c a640
00000140: 930c 9d3f d365 85c0 d365 85c0 fcb8 4b40
00000150: f16a d840 0a22 c140 f16a d840 aae4 ce40
00000160: 9334 9e40 fe38 8640 9334 9e40 95ef 8a40
00000170: a3cb a340 e281 e340 379f a840 3072 5b41
00000180: 0a22 c140 6895 1d41 d818 1f40 95f6 2d40
00000190: 1cab 0e41 1cab 0e41 38b9 4740 38b9 4740
000001a0: b579 6a40 b579 6a40 b579 6a40 8092 5d40
000001b0: e48a 7e40 5a8d 5040 6851 4340 725f 5e40
000001c0: 725f 5e40 6851 4340 725f 5e40 0000 0000
000001d0: 2413 2c40 1094 a640 aa80 3c40 2413 2c40
000001e0: 4e91 2340 343d 5e40 343d 5e40 c04b 0ac0
000001f0: 298a 0f3f ec6b 2fc0 b543 35c0 e29f f6bf
00000200: ba36 eebf e369 2841 d6be aabf d6be aabf
00000210: d6be aabf d6be aabf d6be aabf 2371 35c0
00000220: 0000 0000 3603 f1c0 5e57 e4c0 34d4 c2c0
00000230: f923 2d41 34d4 c2c0 34d4 c2c0 e9c7 c3c0
00000240: 1ef7 c2c0 1ef7 c2c0 328e 9dc0 328e 9dc0
00000250: 5fd2 dec0 5fd2 dec0 fb89 14c0 7706 4440
00000260: fb89 14c0 fb89 14c0 fb89 14c0 e864 3a40
00000270: 6e5f 3640 6e5f 3640 fff7 1940 fff7 1940
00000280: 795c fe3f 6883 4e40 7706 4440 6883 4e40
00000290: 3416 ba3f 3416 ba3f 3416 ba3f 0c73 bb3f
000002a0: 0c73 bb3f 0000 0000 0000 0000 fe7c 03bf
000002b0: fe7c 03bf 0a22 c140 3072 5b41 8e2f 34c0
000002c0: 467f f8c0 22b9 ad3f f16a d840 725f 5e40
000002d0: fb89 14c0 6e5f 3640 3416 ba3f 22b9 ad3f
000002e0: 0000 0000 22b9 ad3f bb7f c83f cbba 0440
000002f0: 8a1b 1440 7508 b7be d168 ce3f d168 ce3f
00000300: 559b e6be 3db4 61c0 6a0f 53c0 6a0f 53c0
00000310: 6a0f 53c0 684e 46c0 684e 46c0 8a1b 1440
00000320: 684e 46c0 539a 58c0 3ae1 64c0 79e6 55c0
00000330: 79e6 55c0 79e6 55c0 cc8c 52c0 f2b2 28c0
00000340: 33f0 50c0 3495 4ac0 8a1b 1440 3495 4ac0
00000350: f03d a7c0 dc6b 07c0 3cfc 393f 3cfc 393f
00000360: 1eb1 e3bf 1eb1 e3bf 6006 f43e 4eb6 8d40
00000370: 4eb6 8d40 8a1b 1440 4eb6 8d40 9c46 0740
00000380: a5c3 1c3f a5c3 1c3f 5cf0 b1bf c625 1ec0
00000390: c625 1ec0 c625 1ec0 241a 46c0 c6ad c5c0
000003a0: dffd 2940 1857 01c1 1675 6740 1675 6740
000003b0: c625 1ec0 241a 46c0 27c1 14c1 27c1 14c1
000003c0: b165 3040 4116 6f40 4116 6f40 bc5d 3140
000003d0: 6891 14c1 4fe2 08c1 4fe2 08c1 bdb0 20c1
000003e0: 6f65 32c1 bdb0 20c1 6f65 32c1 2f70 38c1
000003f0: 419c 0dc1 2f70 38c1 ffd8 a640 2217 05c1
