input_data_local/lips_idf_2023/Benchmark_competition/test_ood_topo/theta_or.npz (npz, 937383 bytes, 1 tensors)

data f4 [2000, 186]
000000 81 3c a2 3f 81 3c a2 3f 77 06 44 40 fe 7c 03 bf
       1.2674714 1.2674714 3.0628946 -0.513626
000010 37 9f a8 40 86 29 57 be 86 29 57 be fe 7c 03 bf
       5.2694354 -0.21011934 -0.21011934 -0.513626
000020 fe 7c 03 bf 00 00 00 00 e6 f6 54 c0 e9 dc 9c c0
       -0.513626 0.0 -3.3275695 -4.9019666
000030 00 00 00 00 16 73 d2 3f 36 68 45 c0 05 0c 60 c0
       0.0 1.6441371 -3.0844855 -3.5007336
000040 5c a8 6d c0 54 d5 24 c0 54 d5 24 c0 30 31 6c c0
       -3.7134008 -2.5755205 -2.5755205 -3.6905022
000050 54 d5 24 c0 84 29 92 c0 11 55 89 c0 11 55 89 c0
       -2.5755205 -4.567568 -4.291634 -4.291634
000060 b9 9b 0a 40 c1 c5 b0 c0 5b f7 b6 c0 5b f7 b6 c0
       2.1657546 -5.52414 -5.7176948 -5.7176948
000070 5b f7 b6 c0 e8 c4 a5 c0 ec 8a 2c c0 ec 8a 2c c0
       -5.7176948 -5.1802864 -2.695979 -2.695979
000080 65 7b a8 c0 ec 8a 2c c0 ec 8a 2c c0 aa 80 3c 40
       -5.265063 -2.695979 -2.695979 2.945353
000090 6d cd 47 c0 a4 df 26 3f a4 df 26 3f 99 45 cb bf
       -3.1219132 0.65185 0.65185 -1.5880615
0000a0 63 4d 41 c0 8e 2f 34 c0 84 29 92 c0 63 4d 41 c0
       -3.0203483 -2.8154025 -4.567568 -3.0203483
0000b0 8e 2f 34 c0 8e 2f 34 c0 77 06 44 40 8e 2f 34 c0
       -2.8154025 -2.8154025 3.0628946 -2.8154025
0000c0 a4 df 26 3f 63 4d 41 c0 f2 59 87 c0 08 22 8a c0
       0.65185 -3.0203483 -4.2297297 -4.316654
0000d0 18 d9 47 c0 89 8a 2f c0 6d 06 04 c0 a4 df 26 3f
       -3.1226254 -2.7428305 -2.0628922 0.65185
0000e0 c4 f8 06 c0 1d e1 18 40 6d 06 04 c0 6d 06 04 c0
       -2.1089334 2.3887398 -2.0628922 -2.0628922
0000f0 56 eb 04 c0 56 eb 04 c0 6d 06 04 c0 48 f3 ae bf
       -2.0768638 -2.0768638 -2.0628922 -1.3667994
000100 9e fe 36 c0 9e fe 36 c0 9e fe 36 c0 e8 c7 7d c0
       -2.8592906 -2.8592906 -2.8592906 -3.9653263
000110 69 ee 2d 40 66 03 d6 bf 56 eb 04 c0 71 20 92 bf
       2.7176764 -1.6719787 -2.0768638 -1.141615
000120 6e 45 20 3f 6e 45 20 3f f1 6a d8 40 b5 79 6a 40
       0.6260594 0.6260594 6.7630544 3.6636784
000130 b5 79 6a 40 10 c9 38 40 ab 02 3c 40 35 6e 34 40
       3.6636784 2.887272 2.9376628 2.8192265
000140 1d e1 18 40 36 68 45 c0 e9 dc 9c c0 1d e1 18 40
       2.3887398 -3.0844855 -4.9019666 2.3887398
000150 85 5c a6 40 e5 ac b7 40 fc b8 4b 40 f1 6a d8 40
       5.198794 5.7398553 3.1831656 6.7630544
000160 aa e4 ce 40 93 34 9e 40 85 5c a6 40 fe 38 86 40
       6.465413 4.9439178 5.198794 4.194457
000170 95 ef 8a 40 a3 cb a3 40 e2 81 e3 40 e2 81 e3 40
       4.341746 5.118608 7.109605 7.109605
000180 b9 9b 0a 40 30 72 5b 41 10 c9 38 40 d8 18 1f 40
       2.1657546 13.715378 2.887272 2.4858913
000190 29 aa 26 41 63 1c 8a 41 f1 6a d8 40 95 f6 2d 40
       10.416543 17.26386 6.7630544 2.7181752
0001a0 e2 81 e3 40 38 b9 47 40 10 c9 38 40 0a 22 c1 40
       7.109605 3.1206799 2.887272 6.035405
0001b0 85 5c a6 40 93 34 9e 40 52 74 43 40 52 74 43 40
       5.198794 4.9439178 3.0539746 3.0539746
0001c0 e4 8a 7e 40 5a 8d 50 40 5a 8d 50 40 00 00 00 00
       3.9772272 3.2586274 3.2586274 0.0
0001d0 72 5f 5e 40 1c ab 0e 41 80 92 5d 40 a3 32 11 40
       3.4745755 8.916775 3.4620667 2.2687156
0001e0 24 13 2c 40 24 13 2c 40 4e 91 23 40 29 8a 0f 3f
       2.6886683 2.6886683 2.5557437 0.5607019
0001f0 5a 8d 50 40 c0 4b 0a c0 ec 6b 2f c0 b5 43 35 c0
       3.2586274 -2.1608734 -2.740962 -2.8322575
000200 b5 43 35 c0 29 aa 26 41 e2 9f f6 bf 34 3d 5e 40
       -2.8322575 10.416543 -1.9267542 3.4724855
000210 34 3d 5e 40 ec 6b 2f c0 ba 36 ee bf d6 be aa bf
       3.4724855 -2.740962 -1.8610451 -1.3339489
000220 00 00 00 00 3e 1c ed c0 36 03 f1 c0 5e 57 e4 c0
       0.0 -7.4096975 -7.531642 -7.135665
000230 e3 69 28 41 d6 be aa bf d6 be aa bf 34 d4 c2 c0
       10.525851 -1.3339489 -1.3339489 -6.0884037
000240 34 d4 c2 c0 e9 c7 c3 c0 1e f7 c2 c0 23 71 35 c0
       -6.0884037 -6.118153 -6.0926657 -2.8350303
000250 1e f7 c2 c0 3e 1c ed c0 34 d4 c2 c0 e5 ac b7 40
       -6.0926657 -7.4096975 -6.0884037 5.7398553
000260 1e f7 c2 c0 1e f7 c2 c0 e9 c7 c3 c0 fb 89 14 c0
       -6.0926657 -6.0926657 -6.118153 -2.3209217
000270 fb 89 14 c0 e8 64 3a 40 e8 64 3a 40 6e 5f 36 40
       -2.3209217 2.9124088 2.9124088 2.8495746
000280 01 88 fc 3e 10 94 a6 40 0a 22 c1 40 79 5c fe 3f
       0.49322513 5.205574 6.035405 1.987197
000290 d6 be aa bf d6 be aa bf ff f7 19 40 ff f7 19 40
       -1.3339489 -1.3339489 2.4057615 2.4057615
0002a0 34 16 ba 3f e2 9f f6 bf d6 be aa bf 00 00 00 00
       1.4538026 -1.9267542 -1.3339489 0.0
0002b0 37 9f a8 40 29 aa 26 41 63 1c 8a 41 d7 da 05 be
       5.2694354 10.416543 17.26386 -0.13071762
0002c0 00 fb fd c0 51 37 a8 3f 1c ab 0e 41 10 94 a6 40
       -7.9368896 1.3141881 8.916775 5.205574
0002d0 01 88 fc 3e 79 5c fe 3f 68 83 4e 40 68 83 4e 40
       0.49322513 1.987197 3.2267704 3.2267704
0002e0 22 b9 ad 3f d7 da 05 be 91 98 97 3f 91 98 97 3f
       1.3572123 -0.13071762 1.1843435 1.1843435
0002f0 60 5c 3e 40 7f 6c 27 bf bb ee a0 40 75 08 b7 be
       2.9743881 -0.65399927 5.029142 -0.3574864
000300 75 08 b7 be 7f 6c 27 bf 7f 6c 27 bf 00 00 00 00
       -0.3574864 -0.65399927 -0.65399927 0.0
000310 3d b4 61 c0 b4 51 a7 c0 00 00 00 00 bb 7f c8 3f
       -3.5266259 -5.2287235 0.0 1.566398
000320 6a 0f 53 c0 68 4e 46 c0 53 9a 58 c0 68 4e 46 c0
       -3.2978158 -3.0985355 -3.3844192 -3.0985355
000330 68 4e 46 c0 3a e1 64 c0 68 4e 46 c0 cc 8c 52 c0
       -3.0985355 -3.5762467 -3.0985355 -3.2898436
000340 f2 b2 28 c0 f2 b2 28 c0 cb ba 04 40 33 f0 50 c0
       -2.635922 -2.635922 2.073901 -3.2646606
000350 34 95 4a c0 34 95 4a c0 34 95 4a c0 dc 6b 07 c0
       -3.1653566 -3.1653566 -3.1653566 -2.1159582
000360 3c fc 39 3f 3c fc 39 3f 1e b1 e3 bf 3c fc 39 3f
       0.72650504 0.72650504 -1.7788427 0.72650504
000370 3c fc 39 3f f1 af 36 40 60 06 f4 3e 4e b6 8d 40
       0.72650504 2.8544886 0.47661114 4.428504
000380 4e b6 8d 40 9c 46 07 40 a5 c3 1c 3f 79 e6 55 c0
       4.428504 2.1136847 0.6123603 -3.342192
000390 cc 8c 52 c0 a5 c3 1c 3f 79 e6 55 c0 79 e6 55 c0
       -3.2898436 0.6123603 -3.342192 -3.342192
0003a0 60 5c 3e 40 79 e6 55 c0 4e b6 8d 40 a5 c3 1c 3f
       2.9743881 -3.342192 4.428504 0.6123603
0003b0 5c f0 b1 bf c6 25 1e c0 c6 ad c5 c0 18 57 01 c1
       -1.3901477 -2.4710555 -6.1774626 -8.083763
0003c0 16 75 67 40 4e b6 8d 40 b1 65 30 40 8a 1b 14 40
       3.6165214 4.428504 2.7562068 2.3141809
0003d0 27 c1 14 c1 27 c1 14 c1 68 91 14 c1 68 91 14 c1
       -9.297156 -9.297156 -9.2855 -9.2855
0003e0 27 c1 14 c1 4f e2 08 c1 bd b0 20 c1 bd b0 20 c1
       -9.297156 -8.555251 -10.043149 -10.043149
0003f0 bd b0 20 c1 6f 65 32 c1 df fd 29 40 41 9c 0d c1
       -10.043149 -11.149764 2.65612 -8.850648
