input_data_local/lips_neurips_2020_track1_small/Benchmark_competition/test_ood_topo/theta_or.npz (npz, 289152 bytes, 1 tensors)

data f4 [2000, 59]
000000 a5 36 d8 bf a5 36 d8 bf fd 75 49 c0 5a 64 c6 bf
       -1.6891676 -1.6891676 -3.1478264 -1.5499375
000010 5a 64 c6 bf 33 f4 a1 bf 33 f4 a1 bf 60 c6 63 3f
       -1.5499375 -1.2652649 -1.2652649 0.8897457
000020 00 00 00 00 8d b9 21 40 ac 2e ba 40 73 87 1e c1
       0.0 2.5269501 5.8181973 -9.908069
000030 37 29 21 c1 3e d5 06 c1 ba 75 ef c0 ea 82 cd c0
       -10.072562 -8.427061 -7.483121 -6.4222307
000040 ea 82 cd c0 68 83 98 c0 43 84 de 40 43 84 de 40
       -6.4222307 -4.766041 6.953645 6.953645
000050 ba 75 ef c0 78 6e a2 c0 0e 97 d6 c0 0e 97 d6 c0
       -7.483121 -5.075985 -6.7059393 -6.7059393
000060 f0 34 1a c1 9e cf 22 c1 a0 7f 2d c1 c6 c1 8e c0
       -9.637924 -10.175688 -10.843658 -4.461154
000070 c6 c1 8e c0 b7 b9 28 c1 b7 b9 28 c1 1d 9e 2b c1
       -4.461154 -10.545341 -10.545341 -10.726102
000080 67 dc 29 c1 9c 81 ff c0 67 dc 29 c1 f0 34 1a c1
       -10.616309 -7.9845715 -10.616309 -9.637924
000090 b7 b9 28 c1 67 dc 29 c1 67 dc 29 c1 1d 9e 2b c1
       -10.545341 -10.616309 -10.616309 -10.726102
0000a0 f9 3d 0a c1 f9 3d 0a c1 d7 ca c7 c0 d7 ca c7 c0
       -8.64013 -8.64013 -6.2435107 -6.2435107
0000b0 08 9b b9 c0 67 47 bc c0 7e 34 a5 be 5a 41 8d c0
       -5.8001747 -5.883716 -0.3226661 -4.4142275
0000c0 0e 97 d6 c0 00 00 00 00 b4 17 bc c0 b4 17 bc c0
       -6.7059393 0.0 -5.8778934 -5.8778934
0000d0 c3 27 4f c0 68 83 98 c0 c6 c1 8e c0 7e 34 a5 be
       -3.2368019 -4.766041 -4.461154 -0.3226661
0000e0 67 47 bc c0 5a 41 8d c0 73 db 20 bf a3 ee 02 c0
       -5.883716 -4.4142275 -0.6283485 -2.0458152
0000f0 a3 ee 02 c0 f8 f0 5e c0 55 72 f3 bf 55 72 f3 bf
       -2.0458152 -3.4834576 -1.9019266 -1.9019266
000100 88 2b cf bf 88 2b cf bf b8 f7 b3 3e 99 21 f1 3f
       -1.618516 -1.618516 0.35149932 1.8838378
000110 00 00 00 00 3d 33 41 40 a3 86 1f c1 29 38 22 c1
       0.0 3.0187523 -9.97037 -10.138711
000120 2b d4 07 c1 91 72 f1 c0 99 ea cf c0 99 ea cf c0
       -8.489299 -7.545235 -6.4973874 -6.4973874
000130 30 be 9a c0 dd 1c ea 40 dd 1c ea 40 91 72 f1 c0
       -4.8357162 7.3160233 7.3160233 -7.545235
000140 49 70 a5 c0 bb ca 91 c0 bb ca 91 c0 c2 5f 0d c1
       -5.1699567 -4.5559974 -4.5559974 -8.835878
000150 95 69 19 c1 d2 12 2d c1 00 00 00 00 bb ca 91 c0
       -9.588277 -10.817095 0.0 -4.5559974
000160 f3 ba 2e c1 f3 ba 2e c1 c8 bf 2f c1 bb d2 2d c1
       -10.920642 -10.920642 -10.984322 -10.863948
000170 2c 66 cd c0 bb d2 2d c1 c2 5f 0d c1 f3 ba 2e c1
       -6.418722 -10.863948 -8.835878 -10.920642
000180 bb d2 2d c1 bb d2 2d c1 c8 bf 2f c1 59 b3 0b c1
       -10.863948 -10.863948 -10.984322 -8.731286
000190 59 b3 0b c1 7a f3 c7 c0 7a f3 c7 c0 ef ba b9 c0
       -8.731286 -6.2484713 -6.2484713 -5.804069
0001a0 4b 8f bd c0 35 02 11 bf ed a2 8d c0 bb ca 91 c0
       -5.923742 -0.5664399 -4.4261384 -4.5559974
0001b0 bb ca 91 c0 b9 08 bb c0 b9 08 bb c0 18 33 44 c0
       -4.5559974 -5.844815 -5.844815 -3.0656185
0001c0 30 be 9a c0 bb ca 91 c0 35 02 11 bf 4b 8f bd c0
       -4.8357162 -4.5559974 -0.5664399 -5.923742
0001d0 ed a2 8d c0 43 9b 1b bf 14 43 e1 bf 14 43 e1 bf
       -4.4261384 -0.60783786 -1.7598596 -1.7598596
0001e0 5a b0 4b c0 ae 10 d1 bf ae 10 d1 bf a5 a3 a2 bf
       -3.1826386 -1.6333215 -1.6333215 -1.270619
0001f0 a5 a3 a2 bf 0b 7d 6c 3f 79 a2 23 40 79 a2 23 40
       -1.270619 0.923783 2.5567915 2.5567915
000200 b0 d8 4a 40 d3 d7 74 c0 ae 10 d1 bf 71 c6 bc c0
       3.1694756 -3.8256729 -1.6333215 -5.899224
000210 00 00 00 00 10 76 ae c0 10 76 ae c0 39 8c 91 c0
       0.0 -5.451912 -5.451912 -4.548367
000220 43 eb c0 40 43 eb c0 40 f9 9f c8 c0 74 90 9e c0
       6.0287185 6.0287185 -6.269528 -4.9551334
000230 6a 26 92 c0 6a 26 92 c0 cb 18 06 c1 f1 c8 10 c1
       -4.567189 -4.567189 -8.381053 -9.049058
000240 dc 07 21 c1 6a 26 92 c0 6a 26 92 c0 00 67 20 c1
       -10.064419 -4.567189 -4.567189 -10.0251465
000250 00 67 20 c1 0f 2e 23 c1 c2 f5 20 c1 a5 61 c7 c0
       -10.0251465 -10.198745 -10.059999 -6.2306695
000260 c2 f5 20 c1 cb 18 06 c1 00 67 20 c1 c2 f5 20 c1
       -10.059999 -8.381053 -10.0251465 -10.059999
000270 c2 f5 20 c1 0f 2e 23 c1 6a 54 08 c1 6a 54 08 c1
       -10.059999 -10.198745 -8.520609 -8.520609
000280 e2 65 0e c1 e2 65 0e c1 6f 34 fd c0 a8 35 97 c0
       -8.899874 -8.899874 -7.9126506 -4.7253
000290 83 72 b4 3c b3 86 2c c0 6a 26 92 c0 6a 26 92 c0
       0.02202726 -2.6957214 -4.567189 -4.567189
0002a0 e7 f5 f7 c0 e7 f5 f7 c0 ef 35 39 c0 39 8c 91 c0
       -7.7487674 -7.7487674 -2.8939168 -4.548367
0002b0 6a 26 92 c0 83 72 b4 3c a8 35 97 c0 00 00 00 00
       -4.567189 0.02202726 -4.7253 0.0
0002c0 e9 e9 ad 3e bc 43 b5 3d bc 43 b5 3d 07 60 ad bf
       0.33967522 0.0885081 0.0885081 -1.354493
0002d0 6b b7 6e 3e 6b b7 6e 3e 1c 56 04 3f 1c 56 04 3f
       0.23312156 0.23312156 0.5169389 0.5169389
0002e0 7e 9d 2c 40 cd ff 8a 40 cd ff 8a 40 8d e3 9a 40
       2.6971126 4.3437257 4.3437257 4.840277
0002f0 14 b1 1c c1 f0 78 1f c1 cc 6e 04 c1 d4 3f ea c0
       -9.793232 -9.967026 -8.27705 -7.3202915
000300 29 61 d0 c0 29 61 d0 c0 00 00 00 00 65 fc eb 40
       -6.5118604 -6.5118604 0.0 7.37456
000310 65 fc eb 40 d4 3f ea c0 2f be 95 c0 36 5d 7b c0
       7.37456 -7.3202915 -4.679466 -3.9275641
000320 36 5d 7b c0 18 e2 f5 c0 f6 92 05 c1 1d 45 15 c1
       -3.9275641 -7.6838493 -8.348379 -9.329373
000330 36 5d 7b c0 36 5d 7b c0 bd fa 13 c1 bd fa 13 c1
       -3.9275641 -3.9275641 -9.248715 -9.248715
000340 09 74 16 c1 70 d2 14 c1 a3 2f b2 c0 70 d2 14 c1
       -9.403329 -9.301376 -5.568315 -9.301376
000350 18 e2 f5 c0 bd fa 13 c1 00 00 00 00 70 d2 14 c1
       -7.6838493 -9.248715 0.0 -9.301376
000360 09 74 16 c1 b7 fa e1 c0 b7 fa e1 c0 ff 33 8f c0
       -9.403329 -7.061855 -7.061855 -4.475097
000370 ff 33 8f c0 c7 de a7 c0 a4 05 86 c0 83 9c b8 3f
       -4.475097 -5.2459445 -4.1881886 1.4422764
000380 4a eb 29 c0 36 5d 7b c0 36 5d 7b c0 1a f0 98 c0
       -2.654986 -3.9275641 -3.9275641 -4.7793093
000390 1a f0 98 c0 c1 d6 f1 bf 12 9b a7 c0 36 5d 7b c0
       -4.7793093 -1.8893663 -5.2376795 -3.9275641
0003a0 83 9c b8 3f a4 05 86 c0 4a eb 29 c0 e6 b7 80 3f
       1.4422764 -4.1881886 -2.654986 1.0056121
0003b0 e7 b4 58 c0 e7 b4 58 c0 9b 81 9a c0 46 4c 52 c0
       -3.3860414 -3.3860414 -4.828321 -3.2859054
0003c0 46 4c 52 c0 d9 d0 36 c0 d9 d0 36 c0 d8 34 01 bf
       -3.2859054 -2.856497 -2.856497 -0.5047126
0003d0 e0 69 9b 3f e0 69 9b 3f 05 3d f7 3f 83 08 a2 c0
       1.2141685 1.2141685 1.9315497 -5.063539
0003e0 46 4c 52 c0 67 2e cf c0 40 e2 d2 c0 e5 05 c7 c0
       -3.2859054 -6.4744143 -6.5901184 -6.2194695
0003f0 e5 05 c7 c0 1e d0 9c c0 a4 8f a2 40 a4 8f a2 40
       -6.2194695 -4.900405 5.0800343 5.0800343
