input_data_local/lips_neurips_2020_track1_small/Benchmark_competition/test_ood_topo/theta_ex.npz (npz, 265662 bytes, 1 tensors)

data f4 [2000, 59]
-1.6991016 -1.2652649 -1.2652649 -1.6991016 -1.2652649 0.8897457 2.5269501 2.5269501
0.0 6.953645 6.953645 -8.427061 -9.908069 -7.483121 -6.4222307 -4.766041
-5.075985 -4.461154 -4.461154 -4.461154 -4.461154 -4.461154 -7.9845715 -9.637924
-10.175688 -10.843658 -10.545341 -10.545341 -10.545341 -10.726102 -10.616309 -10.616309
-9.703372 -9.703372 -10.190614 -10.190614 -8.64013 -8.64013 -8.64013 -8.64013
-6.2435107 -5.8001747 -5.8001747 -5.8778934 -5.8778934 -4.4142275 -0.6283485 -0.6283485
-3.2368019 0.0 -3.2368019 -4.8535256 -4.8535256 0.0 0.0 -1.2652649
-8.64013 -5.8001747 -3.2368019 -2.0554826 -1.618516 -1.618516 -2.0554826 -1.618516
0.35149932 1.8838378 1.8838378 3.0187523 0.0 7.3160233 -8.489299 -9.97037
-7.545235 -6.4973874 -4.8357162 -5.1699567 -4.5559974 -4.5559974 -4.5559974 -4.5559974
-4.5559974 -6.418722 -8.835878 -9.588277 -10.817095 -10.920642 0.0 -10.920642
-10.984322 -10.863948 -10.863948 -9.190927 -9.190927 -9.84231 -9.84231 -8.731286
-8.731286 -8.731286 -8.731286 -6.2484713 -5.804069 -5.804069 -5.844815 -5.844815
-4.4261384 -0.60783786 -0.60783786 -3.0656185 -3.0656185 -3.0656185 -4.74046 -4.74046
0.0 0.0 -1.618516 -8.731286 -5.804069 -3.0656185 -1.7773589 -1.270619
-1.270619 -1.7773589 -1.270619 0.923783 2.5567915 2.5567915 3.1694756 6.0287185
6.0287185 -5.899224 -3.8256729 -6.269528 0.0 -4.548367 -4.9551334 -4.567189
-4.567189 -4.567189 -4.567189 -4.567189 -6.2306695 -8.381053 -9.049058 -10.064419
-10.0251465 -10.0251465 -10.0251465 -10.198745 -10.059999 -10.059999 -8.647631 -8.647631
-9.239055 -9.239055 -8.520609 -8.520609 -8.520609 -8.520609 -8.899874 -7.9126506
-8.899874 -7.7487674 -7.7487674 -2.6957214 0.33967522 0.33967522 -2.8939168 -2.8939168
-2.8939168 -5.535493 -5.535493 0.0 0.0 -1.270619 -8.520609 0.0
-2.8939168 0.079346135 0.5169389 0.5169389 0.079346135 0.5169389 2.6971126 4.3437257
4.3437257 4.840277 7.37456 7.37456 -8.27705 -9.793232 -7.3202915 -6.5118604
-5.2376795 -4.679466 0.0 -3.9275641 -3.9275641 -3.9275641 -3.9275641 -5.568315
-7.6838493 -8.348379 -9.329373 -9.248715 -9.248715 -9.248715 -9.403329 -9.301376
-9.301376 -7.92443 -7.92443 -8.514787 -8.514787 -7.061855 0.0 -7.061855
-7.061855 -4.475097 -5.2459445 -3.8498719 -4.7793093 -4.7793093 -2.654986 1.0056121
1.0056121 -1.8893663 -1.8893663 -1.8893663 -3.6260252 -3.6260252 0.0 0.0
0.5169389 -7.061855 -3.8498719 -1.8893663 -3.4097054 -2.856497 -2.856497 -3.4097054
-2.856497 -0.5047126 1.2141685 1.2141685 1.9315497 5.0800343 5.0800343 -6.4744143
-5.063539 -6.5901184 -6.2194695 -4.900405 -5.2975044 -4.796495 -4.796495 -4.796495
00000000: 297c d9bf 33f4 a1bf 33f4 a1bf 297c d9bf
00000010: 33f4 a1bf 60c6 633f 8db9 2140 8db9 2140
00000020: 0000 0000 4384 de40 4384 de40 3ed5 06c1
00000030: 7387 1ec1 ba75 efc0 ea82 cdc0 6883 98c0
00000040: 786e a2c0 c6c1 8ec0 c6c1 8ec0 c6c1 8ec0
00000050: c6c1 8ec0 c6c1 8ec0 9c81 ffc0 f034 1ac1
00000060: 9ecf 22c1 a07f 2dc1 b7b9 28c1 b7b9 28c1
00000070: b7b9 28c1 1d9e 2bc1 67dc 29c1 67dc 29c1
00000080: 0341 1bc1 0341 1bc1 c10c 23c1 c10c 23c1
00000090: f93d 0ac1 f93d 0ac1 f93d 0ac1 f93d 0ac1
000000a0: d7ca c7c0 089b b9c0 089b b9c0 b417 bcc0
000000b0: b417 bcc0 5a41 8dc0 73db 20bf 73db 20bf
000000c0: c327 4fc0 0000 0000 c327 4fc0 1550 9bc0
000000d0: 1550 9bc0 0000 0000 0000 0000 33f4 a1bf
000000e0: f93d 0ac1 089b b9c0 c327 4fc0 078d 03c0
000000f0: 882b cfbf 882b cfbf 078d 03c0 882b cfbf
00000100: b8f7 b33e 9921 f13f 9921 f13f 3d33 4140
00000110: 0000 0000 dd1c ea40 2bd4 07c1 a386 1fc1
00000120: 9172 f1c0 99ea cfc0 30be 9ac0 4970 a5c0
00000130: bbca 91c0 bbca 91c0 bbca 91c0 bbca 91c0
00000140: bbca 91c0 2c66 cdc0 c25f 0dc1 9569 19c1
00000150: d212 2dc1 f3ba 2ec1 0000 0000 f3ba 2ec1
00000160: c8bf 2fc1 bbd2 2dc1 bbd2 2dc1 090e 13c1
00000170: 090e 13c1 1a7a 1dc1 1a7a 1dc1 59b3 0bc1
00000180: 59b3 0bc1 59b3 0bc1 59b3 0bc1 7af3 c7c0
00000190: efba b9c0 efba b9c0 b908 bbc0 b908 bbc0
000001a0: eda2 8dc0 439b 1bbf 439b 1bbf 1833 44c0
000001b0: 1833 44c0 1833 44c0 d9b1 97c0 d9b1 97c0
000001c0: 0000 0000 0000 0000 882b cfbf 59b3 0bc1
000001d0: efba b9c0 1833 44c0 7f80 e3bf a5a3 a2bf
000001e0: a5a3 a2bf 7f80 e3bf a5a3 a2bf 0b7d 6c3f
000001f0: 79a2 2340 79a2 2340 b0d8 4a40 43eb c040
00000200: 43eb c040 71c6 bcc0 d3d7 74c0 f99f c8c0
00000210: 0000 0000 398c 91c0 7490 9ec0 6a26 92c0
00000220: 6a26 92c0 6a26 92c0 6a26 92c0 6a26 92c0
00000230: a561 c7c0 cb18 06c1 f1c8 10c1 dc07 21c1
00000240: 0067 20c1 0067 20c1 0067 20c1 0f2e 23c1
00000250: c2f5 20c1 c2f5 20c1 b25c 0ac1 b25c 0ac1
00000260: 2bd3 13c1 2bd3 13c1 6a54 08c1 6a54 08c1
00000270: 6a54 08c1 6a54 08c1 e265 0ec1 6f34 fdc0
00000280: e265 0ec1 e7f5 f7c0 e7f5 f7c0 b386 2cc0
00000290: e9e9 ad3e e9e9 ad3e ef35 39c0 ef35 39c0
000002a0: ef35 39c0 c222 b1c0 c222 b1c0 0000 0000
000002b0: 0000 0000 a5a3 a2bf 6a54 08c1 0000 0000
000002c0: ef35 39c0 3a80 a23d 1c56 043f 1c56 043f
000002d0: 3a80 a23d 1c56 043f 7e9d 2c40 cdff 8a40
000002e0: cdff 8a40 8de3 9a40 65fc eb40 65fc eb40
000002f0: cc6e 04c1 14b1 1cc1 d43f eac0 2961 d0c0
00000300: 129b a7c0 2fbe 95c0 0000 0000 365d 7bc0
00000310: 365d 7bc0 365d 7bc0 365d 7bc0 a32f b2c0
00000320: 18e2 f5c0 f692 05c1 1d45 15c1 bdfa 13c1
00000330: bdfa 13c1 bdfa 13c1 0974 16c1 70d2 14c1
00000340: 70d2 14c1 ee94 fdc0 ee94 fdc0 913c 08c1
00000350: 913c 08c1 b7fa e1c0 0000 0000 b7fa e1c0
00000360: b7fa e1c0 ff33 8fc0 c7de a7c0 4d64 76c0
00000370: 1af0 98c0 1af0 98c0 4aeb 29c0 e6b7 803f
00000380: e6b7 803f c1d6 f1bf c1d6 f1bf c1d6 f1bf
00000390: cc10 68c0 cc10 68c0 0000 0000 0000 0000
000003a0: 1c56 043f b7fa e1c0 4d64 76c0 c1d6 f1bf
000003b0: 9d38 5ac0 d9d0 36c0 d9d0 36c0 9d38 5ac0
000003c0: d9d0 36c0 d834 01bf e069 9b3f e069 9b3f
000003d0: 053d f73f a48f a240 a48f a240 672e cfc0
000003e0: 8308 a2c0 40e2 d2c0 e505 c7c0 1ed0 9cc0
000003f0: 2885 a9c0 e37c 99c0 e37c 99c0 e37c 99c0
