input_data_local/lips_idf_2023/Benchmark_competition/train/theta_ex.npz (npz, 937012 bytes, 1 tensors)

data f4 [2000, 186]
0	0x40f3a0c7	7.613376
1	0x40fa507c	7.8223248
2	0x410ab575	8.669301
3	0xbf31b784	-0.6942065
4	0x3fb7f31a	1.4371064
5	0x3fb7f31a	1.4371064
6	0xbf4bbc70	-0.7958441
7	0xc0ab2550	-5.3483047
8	0xc0ade21e	-5.433852
9	0xc0ade21e	-5.433852
10	0xc0ade21e	-5.433852
11	0xc12c4190	-10.766006
12	0xc0d74660	-6.7273407
13	0x410ab575	8.669301
14	0xc12c4190	-10.766006
15	0xc0ec55fc	-7.385496
16	0xc103347e	-8.200315
17	0xc11b10af	-9.691573
18	0xc11b10af	-9.691573
19	0xc11b10af	-9.691573
20	0xc1a7a621	-20.956118
21	0xc1ba2173	-23.266333
22	0xc1de7c5e	-27.810726
23	0xc1ec515d	-29.539728
24	0x410ab575	8.669301
25	0xc1ec515d	-29.539728
26	0xc1e49b86	-28.57594
27	0xc201f0a9	-32.48502
28	0xc1ffaed8	-31.960373
29	0xc1ffaed8	-31.960373
30	0xc201052c	-32.25505
31	0xc201052c	-32.25505
32	0xc201d194	-32.454666
33	0xc20078e6	-32.118065
34	0xc20078e6	-32.118065
35	0x410ab575	8.669301
36	0xc20078e6	-32.118065
37	0xc1ef6440	-29.92395
38	0xc1d9fa14	-27.247108
39	0xc1d9fa14	-27.247108
40	0xc1cdcb6b	-25.724325
41	0xc1afb9a0	-21.965637
42	0xc1afb9a0	-21.965637
43	0xc1afb9a0	-21.965637
44	0xc1809605	-16.073252
45	0xc16748d9	-14.455285
46	0x41175fcd	9.460889
47	0xc1901276	-18.009014
48	0xc1dac92c	-27.348228
49	0xc1dac92c	-27.348228
50	0xc1afb9a0	-21.965637
51	0xc1809605	-16.073252
52	0xc1a41728	-20.511307
53	0xc1a41728	-20.511307
54	0xc1f5cf1b	-30.726126
55	0xc1fe8e96	-31.819622
56	0xc1fe8e96	-31.819622
57	0x410e95fe	8.911619
58	0xc1a94bc6	-21.161999
59	0xc1a44e50	-20.538239
60	0xc1a44e50	-20.538239
61	0xc1afa82a	-21.957111
62	0xc1ba9fa7	-23.327955
63	0xc1afa82a	-21.957111
64	0xc1ba9fa7	-23.327955
65	0xc1c3d01f	-24.476622
66	0xc1ab264b	-21.393698
67	0xc1c3d01f	-24.476622
68	0x4130349c	11.012844
69	0xc1a8ecb0	-21.11557
70	0xc19f768b	-19.932882
71	0xc19f768b	-19.932882
72	0xc163e6fe	-14.243895
73	0xc1ac4d9e	-21.537899
74	0x41115eab	9.085612
75	0x41115eab	9.085612
76	0x405b6b7f	3.428436
77	0x40568125	3.3516324
78	0x40568125	3.3516324
79	0x4130349c	11.012844
80	0x40e6b668	7.2097664
81	0xc0dda3cb	-6.9262443
82	0xc0dda3cb	-6.9262443
83	0x4105f69f	8.37271
84	0x4120cd05	10.050054
85	0x413e619d	11.898831
86	0x4120cd05	10.050054
87	0x4126366f	10.388289
88	0x41214642	10.079653
89	0x40f758b0	7.729576
90	0x41214642	10.079653
91	0x40da5abd	6.8235765
92	0x40d3e867	6.6221194
93	0x40e9b0a8	7.3028145
94	0x40a7fbf4	5.249506
95	0x41576d03	13.464114
96	0x413e619d	11.898831
97	0x406e8920	3.7271194
98	0x4046f269	3.1085455
99	0x405af5d1	3.4212534
100	0x414891fe	12.535643
101	0x414891fe	12.535643
102	0x40804c8c	4.009344
103	0x40804c8c	4.009344
104	0x40846496	4.1372786
105	0x40846496	4.1372786
106	0x40846496	4.1372786
107	0x4116d6a2	9.427401
108	0x41154c16	9.331076
109	0x41049df8	8.288567
110	0x40feb47c	7.959532
111	0x410629d6	8.385214
112	0x410629d6	8.385214
113	0x40feb47c	7.959532
114	0x410629d6	8.385214
115	0x4104e3fe	8.305662
116	0x410c1461	8.754975
117	0x41164ed0	9.394241
118	0x41104e35	9.0190935
119	0x410c1461	8.754975
120	0x410f2ac3	8.94794
121	0x41309bfe	11.038084
122	0x41309bfe	11.038084
123	0x409a16c0	4.815277
124	0x40c8fa6d	6.2805696
125	0x40991989	4.784367
126	0x40b61431	5.689965
127	0x409eb2c1	4.9593205
128	0x40bf9f0e	5.988166
129	0x41796161	15.586274
130	0x40cc0246	6.3752775
131	0x40cc0246	6.3752775
132	0x40cc0246	6.3752775
133	0x40cc0246	6.3752775
134	0x40cc0246	6.3752775
135	0x40cb2a88	6.348942
136	0x40b8e4c4	5.7779255
137	0x40a72911	5.223763
138	0x409374f3	4.608026
139	0x40a186cb	5.047704
140	0x417d6bb5	15.838796
141	0x40a186cb	5.047704
142	0x40a186cb	5.047704
143	0x40e6b5ef	7.2097087
144	0x00000000	0.0
145	0x40f9d5e4	7.8073597
146	0x40dfd00f	6.994148
147	0x40dfd00f	6.994148
148	0x40d03c25	6.507342
149	0x40d03c25	6.507342
150	0x40cd22b8	6.410488
151	0x4122d1dd	10.176236
152	0x40cd22b8	6.410488
153	0x40cd22b8	6.410488
154	0x40cd22b8	6.410488
155	0x410c924d	8.785718
156	0x410adc28	8.678749
157	0x410adc28	8.678749
158	0x410f6b78	8.9637375
159	0x410f6b78	8.9637375
160	0x40ec34c3	7.3814406
161	0x40cbe5f0	6.3718185
162	0x4122d1dd	10.176236
163	0x40cbe5f0	6.3718185
164	0x40d262e5	6.574572
165	0x40d262e5	6.574572
166	0x40d262e5	6.574572
167	0x40e6b7a6	7.209918
168	0x40e6b7a6	7.209918
169	0x00000000	0.0
170	0x00000000	0.0
171	0xbf81a784	-1.0129247
172	0xbf81a784	-1.0129247
173	0x413e619d	11.898831
174	0x41576d03	13.464114
175	0xc11b10af	-9.691573
176	0xc1e49b86	-28.57594
177	0x400d64b2	2.209271
178	0x4120cd05	10.050054
179	0x410629d6	8.385214
180	0x40cd22b8	6.410488
181	0x410adc28	8.678749
182	0x40d262e5	6.574572
183	0x400d64b2	2.209271
184	0x00000000	0.0
185	0x400d64b2	2.209271
186	0x40cd647a	6.418515
187	0x40dbf12f	6.8731914
188	0x40ebe33e	7.3714895
189	0xbf92b216	-1.1460598
190	0x3c65276a	0.013986448
191	0x3c65276a	0.013986448
192	0xbf9fb203	-1.24762
193	0xc0a2e633	-5.0906005
194	0xc0a08935	-5.016749
195	0xc0a08935	-5.016749
196	0xc0a08935	-5.016749
197	0xc1103d6d	-9.014997
198	0xc1103d6d	-9.014997
199	0x40ebe33e	7.3714895
200	0xc1103d6d	-9.014997
201	0xc113f27a	-9.246698
202	0xc11522cd	-9.320996
203	0xc10cfd0e	-8.811781
204	0xc10cfd0e	-8.811781
205	0xc10cfd0e	-8.811781
206	0xc19c245f	-19.51776
207	0xc1aebca1	-21.842104
208	0xc1d33cf9	-26.404772
209	0xc1e12b3d	-28.146112
210	0x40ebe33e	7.3714895
211	0xc1e12b3d	-28.146112
212	0xc1d9a0e1	-27.203554
213	0xc1f8e4ae	-31.11166
214	0xc1f4d5dd	-30.604425
215	0xc1f4d5dd	-30.604425
216	0xc1f7786a	-30.933796
217	0xc1f7786a	-30.933796
218	0xc1f8ff95	-31.124796
219	0xc1f63360	-30.775085
220	0xc1f63360	-30.775085
221	0x40ebe33e	7.3714895
222	0xc1f63360	-30.775085
223	0xc1e4c977	-28.598372
224	0xc1cf8edc	-25.944756
225	0xc1cf8edc	-25.944756
226	0xc1c38628	-24.440506
227	0xc1a5a676	-20.70628
228	0xc1a5a676	-20.70628
229	0xc1a5a676	-20.70628
230	0xc1700e51	-15.003495
231	0xc157c19e	-13.48477
232	0x4112ab0c	9.1667595
233	0xc187ac0e	-16.959011
234	0xc1d02fe9	-26.023394
235	0xc1d02fe9	-26.023394
236	0xc1a5a676	-20.70628
237	0xc1700e51	-15.003495
238	0xc19b1f88	-19.390396
239	0xc19b1f88	-19.390396
240	0xc1eb1f49	-29.390276
241	0xc1f3d4df	-30.478941
242	0xc1f3d4df	-30.478941
243	0x4106cc4f	8.42488
244	0xc19ffdcd	-19.998926
245	0xc19ae71f	-19.362852
246	0xc19ae71f	-19.362852
247	0xc1a626a8	-20.768875
248	0xc1b12424	-22.142647
249	0xc1a626a8	-20.768875
250	0xc1b12424	-22.142647
251	0xc1ba23b1	-23.267427
252	0xc1a16fa8	-20.17952
253	0xc1ba23b1	-23.267427
254	0x414c4ad3	12.768268
255	0xc19f1ffa	-19.890614
