input_data_local/lips_idf_2023/Benchmark_competition/train/theta_or.npz (npz, 938246 bytes, 1 tensors)

data f4 [2000, 186]
000000 48 63 dc 40 48 63 dc 40 dd d1 22 41 84 a7 81 bf
       6.8871193 6.8871193 10.176236 -1.0129247
000010 f4 fb a7 40 84 b7 31 bf 84 b7 31 bf 84 a7 81 bf
       5.249506 -0.6942065 -0.6942065 -1.0129247
000020 84 a7 81 bf 00 00 00 00 50 25 ab c0 26 a4 01 c1
       -1.0129247 0.0 -5.3483047 -8.102575
000030 00 00 00 00 c7 a0 f3 40 1e e2 ad c0 60 46 d7 c0
       0.0 7.613376 -5.433852 -6.7273407
000040 fc 55 ec c0 90 41 2c c1 90 41 2c c1 7e 34 03 c1
       -7.385496 -10.766006 -10.766006 -8.200315
000050 90 41 2c c1 21 a6 a7 c1 73 21 ba c1 73 21 ba c1
       -10.766006 -20.956118 -23.266333 -23.266333
000060 7c 50 fa 40 5e 7c de c1 5d 51 ec c1 5d 51 ec c1
       7.8223248 -27.810726 -29.539728 -29.539728
000070 5d 51 ec c1 a9 f0 01 c2 d8 ae ff c1 d8 ae ff c1
       -29.539728 -32.48502 -31.960373 -31.960373
000080 2c 05 01 c2 d8 ae ff c1 d8 ae ff c1 35 4e 10 41
       -32.25505 -31.960373 -31.960373 9.0190935
000090 94 d1 01 c2 e6 78 00 c2 e6 78 00 c2 40 64 ef c1
       -32.454666 -32.118065 -32.118065 -29.92395
0000a0 14 fa d9 c1 af 10 1b c1 21 a6 a7 c1 14 fa d9 c1
       -27.247108 -9.691573 -20.956118 -27.247108
0000b0 af 10 1b c1 af 10 1b c1 dd d1 22 41 af 10 1b c1
       -9.691573 -9.691573 10.176236 -9.691573
0000c0 e6 78 00 c2 14 fa d9 c1 6b cb cd c1 a0 b9 af c1
       -32.118065 -27.247108 -25.724325 -21.965637
0000d0 d9 48 67 c1 76 12 90 c1 2c c9 da c1 e6 78 00 c2
       -14.455285 -18.009014 -27.348228 -32.118065
0000e0 1b cf f5 c1 75 b5 0a 41 28 17 a4 c1 28 17 a4 c1
       -30.726126 8.669301 -20.511307 -20.511307
0000f0 c6 4b a9 c1 c6 4b a9 c1 28 17 a4 c1 50 4e a4 c1
       -21.161999 -21.161999 -20.511307 -20.538239
000100 2a a8 af c1 2a a8 af c1 2a a8 af c1 a7 9f ba c1
       -21.957111 -21.957111 -21.957111 -23.327955
000110 cd 5f 17 41 4b 26 ab c1 c6 4b a9 c1 b0 ec a8 c1
       9.460889 -21.393698 -21.161999 -21.11557
000120 8b 76 9f c1 8b 76 9f c1 05 cd 20 41 96 64 84 40
       -19.932882 -19.932882 10.050054 4.1372786
000130 96 64 84 40 20 89 6e 40 7f 6b 5b 40 fe 95 0e 41
       4.1372786 3.7271194 3.428436 8.911619
000140 75 b5 0a 41 1e e2 ad c0 26 a4 01 c1 75 b5 0a 41
       8.669301 -5.433852 -8.102575 8.669301
000150 9c 34 30 41 c7 19 3b 41 9f f6 05 41 05 cd 20 41
       11.012844 11.693793 8.37271 10.050054
000160 6f 36 26 41 42 46 21 41 9c 34 30 41 b0 58 f7 40
       10.388289 10.079653 11.012844 7.729576
000170 bd 5a da 40 67 e8 d3 40 a8 b0 e9 40 a8 b0 e9 40
       6.8235765 6.6221194 7.3028145 7.3028145
000180 7c 50 fa 40 03 6d 57 41 20 89 6e 40 69 f2 46 40
       7.8223248 13.464114 3.7271194 3.1085455
000190 20 48 78 41 23 98 91 41 05 cd 20 41 d1 f5 5a 40
       15.517609 18.199286 10.050054 3.4212534
0001a0 a8 b0 e9 40 8c 4c 80 40 20 89 6e 40 9d 61 3e 41
       7.3028145 4.009344 3.7271194 11.898831
0001b0 9c 34 30 41 42 46 21 41 eb f4 fd 40 eb f4 fd 40
       11.012844 10.079653 7.936147 7.936147
0001c0 16 4c 15 41 f8 9d 04 41 f8 9d 04 41 d6 29 06 41
       9.331076 8.288567 8.288567 8.385214
0001d0 d6 29 06 41 fe 91 48 41 a2 d6 16 41 fe e3 04 41
       8.385214 12.535643 9.427401 8.305662
0001e0 61 14 0c 41 61 14 0c 41 c3 2a 0f 41 6d fa c8 40
       8.754975 8.754975 8.94794 6.2805696
0001f0 f8 9d 04 41 c0 16 9a 40 89 19 99 40 31 14 b6 40
       8.288567 4.815277 4.784367 5.689965
000200 31 14 b6 40 20 48 78 41 c1 b2 9e 40 fe 9b 30 41
       5.689965 15.517609 4.9593205 11.038084
000210 fe 9b 30 41 89 19 99 40 0e 9f bf 40 46 02 cc 40
       11.038084 4.784367 5.988166 6.3752775
000220 46 02 cc 40 c4 e4 b8 40 11 29 a7 40 f3 74 93 40
       6.3752775 5.7779255 5.223763 4.608026
000230 61 61 79 41 46 02 cc 40 46 02 cc 40 cb 86 a1 40
       15.586274 6.3752775 6.3752775 5.047704
000240 00 00 00 00 ef b5 e6 40 e4 d5 f9 40 88 2a cb 40
       0.0 7.2097087 7.8073597 6.348942
000250 e4 d5 f9 40 c4 e4 b8 40 cb 86 a1 40 c7 19 3b 41
       7.8073597 5.7779255 5.047704 11.693793
000260 e4 d5 f9 40 e4 d5 f9 40 ef b5 e6 40 b8 22 cd 40
       7.8073597 7.8073597 7.2097087 6.410488
000270 b8 22 cd 40 4d 92 0c 41 4d 92 0c 41 28 dc 0a 41
       6.410488 8.785718 8.785718 8.678749
000280 51 33 e2 40 d0 4e 16 41 9d 61 3e 41 c3 34 ec 40
       7.068764 9.394241 11.898831 7.3814406
000290 46 02 cc 40 46 02 cc 40 78 6b 0f 41 78 6b 0f 41
       6.3752775 6.3752775 8.9637375 8.9637375
0002a0 e5 62 d2 40 c1 b2 9e 40 46 02 cc 40 00 00 00 00
       6.574572 4.9593205 6.3752775 0.0
0002b0 f4 fb a7 40 20 48 78 41 23 98 91 41 d7 91 08 c0
       5.249506 15.517609 18.199286 -2.1339014
0002c0 2a 43 bb c1 ab 38 0f 40 fe 91 48 41 d0 4e 16 41
       -23.407795 2.2378337 12.535643 9.394241
0002d0 51 33 e2 40 c3 34 ec 40 f0 e5 cb 40 f0 e5 cb 40
       7.068764 7.3814406 6.3718185 6.3718185
0002e0 b2 64 0d 40 d7 91 08 c0 16 b1 bb 40 16 b1 bb 40
       2.209271 -2.1339014 5.865367 5.865367
0002f0 3d 52 14 41 d5 91 a3 bf ca 22 30 40 16 b2 92 bf
       9.270078 -1.277888 2.7521234 -1.1460598
000300 16 b2 92 bf d5 91 a3 bf d5 91 a3 bf 00 00 00 00
       -1.1460598 -1.277888 -1.277888 0.0
000310 33 e6 a2 c0 8e ae e4 c0 00 00 00 00 7a 64 cd 40
       -5.0906005 -7.146308 0.0 6.418515
000320 35 89 a0 c0 6d 3d 10 c1 7a f2 13 c1 6d 3d 10 c1
       -5.016749 -9.014997 -9.246698 -9.014997
000330 6d 3d 10 c1 cd 22 15 c1 6d 3d 10 c1 5f 24 9c c1
       -9.014997 -9.320996 -9.014997 -19.51776
000340 a1 bc ae c1 a1 bc ae c1 2f f1 db 40 f9 3c d3 c1
       -21.842104 -21.842104 6.8731914 -26.404772
000350 3d 2b e1 c1 3d 2b e1 c1 3d 2b e1 c1 ae e4 f8 c1
       -28.146112 -28.146112 -28.146112 -31.11166
000360 dd d5 f4 c1 dd d5 f4 c1 6a 78 f7 c1 dd d5 f4 c1
       -30.604425 -30.604425 -30.933796 -30.604425
000370 dd d5 f4 c1 f6 bb fe 40 95 ff f8 c1 60 33 f6 c1
       -30.604425 7.9604445 -31.124796 -30.775085
000380 60 33 f6 c1 77 c9 e4 c1 dc 8e cf c1 0e fd 0c c1
       -30.775085 -28.598372 -25.944756 -8.811781
000390 5f 24 9c c1 dc 8e cf c1 0e fd 0c c1 0e fd 0c c1
       -19.51776 -25.944756 -8.811781 -8.811781
0003a0 3d 52 14 41 0e fd 0c c1 60 33 f6 c1 dc 8e cf c1
       9.270078 -8.811781 -30.775085 -25.944756
0003b0 28 86 c3 c1 76 a6 a5 c1 9e c1 57 c1 0e ac 87 c1
       -24.440506 -20.70628 -13.48477 -16.959011
0003c0 e9 2f d0 c1 60 33 f6 c1 49 1f eb c1 3e e3 eb 40
       -26.023394 -30.775085 -29.390276 7.3714895
0003d0 88 1f 9b c1 88 1f 9b c1 cd fd 9f c1 cd fd 9f c1
       -19.390396 -19.390396 -19.998926 -19.998926
0003e0 88 1f 9b c1 1f e7 9a c1 a8 26 a6 c1 a8 26 a6 c1
       -19.390396 -19.362852 -20.768875 -20.768875
0003f0 a8 26 a6 c1 24 24 b1 c1 0c ab 12 41 a8 6f a1 c1
       -20.768875 -22.142647 9.1667595 -20.17952
